HW/model.npy (npy, 1432 bytes, 1 tensors)

array f8 [163]
000000 85 47 8f 30 af 08 9c 3f 99 f7 16 17 74 5a 84 bf
       0.027376878107879605 -0.009938151316301535
000010 0a a4 e6 e5 50 ae 8b bf 18 55 e0 ed 26 00 7f bf
       -0.013516075149555124 -0.007568504397587071
000020 2a 57 8a ce ff 1a 83 bf 88 b3 76 63 a0 3c 1f bf
       -0.009328840723621907 -0.00011915902074717381
000030 15 01 88 ad 7b c3 19 3f 4c db d7 ff c9 ad 5e 3f
       9.828035707215952e-05 0.001872489228274171
000040 3b 72 15 5d 94 29 5c 3f a9 49 8f e0 c2 cd 90 3f
       0.0017188977111210052 0.016409916835820635
000050 90 fe 70 d7 e9 ca 97 3f 98 f1 3c 63 09 c6 9b 3f
       0.02323499085855346 0.027122637445459924
000060 a8 3f 3c 0a 1b cb 9c 3f b9 d0 9b d7 c4 70 99 3f
       0.028118536472049677 0.024844241771419393
000070 7a c6 07 28 5b 20 a1 3f e9 a3 a0 0b 97 15 a5 3f
       0.03344998229648595 0.04118034378945607
000080 17 7c a2 93 0b 29 a4 3f 64 84 2f 53 3e cb a8 3f
       0.03937565018826932 0.0484256245179118
000090 81 a5 43 00 b3 4b b3 3f 7e 35 cc 6b d5 96 a1 3f
       0.07537382847262643 0.034353894623658995
0000a0 12 ba c0 48 1e 8f 8c 3f 13 fd e0 23 d4 a3 a9 3f
       0.013944851489296393 0.05007803857778916
0000b0 e2 1b be 10 86 af 8b bf 92 23 91 3a 10 13 ba 3f
       -0.013518378625816344 0.10185338430268434
0000c0 fa dd 42 27 0a dd a1 bf 1c 57 00 31 66 06 a5 bf
       -0.03488952378523531 -0.04106444690857655
0000d0 ef e4 06 7f 82 5a cf 3f 05 e7 11 ea a1 f2 e1 3f
       0.2449496383904157 0.5608682223966929
0000e0 90 22 31 e7 be 9d a9 bf ca b7 3d 7f f1 3b a7 bf
       -0.05003162929694327 -0.04537920644985112
0000f0 21 6e 3b 5d be 5f a7 bf 71 ed 20 48 7c 05 90 3f
       -0.045652340775373064 0.015645925428754596
000100 18 59 d1 ea dc 72 ba 3f e5 00 70 57 5e c5 57 3f
       0.10331516964774712 0.0014508649162508433
000110 80 84 72 6a c6 67 99 bf fd bd 70 59 a2 0c b1 3f
       -0.024809932944326096 0.06659903224566928
000120 9f 11 dc 4e 01 51 d0 3f fa 44 80 ae 0b b3 aa 3f
       0.25494415951859567 0.0521472597612362
000130 2e fd 0a f6 74 62 98 3f a6 8a 94 a3 22 0a b6 3f
       0.023813083188312927 0.08609215253504007
000140 af 69 79 81 ce 90 48 bf 55 a0 3d 61 30 30 7b bf
       -0.000749684174432821 -0.006637753471160653
000150 81 80 aa ff 5e c1 9d bf c8 bc 62 16 70 2d a9 3f
       -0.02905796466313904 0.049174788220051335
000160 70 30 e9 83 83 5f 9f 3f da 92 35 d1 54 c5 b5 bf
       0.030637793470575436 -0.0850422869458031
000170 ab db 18 5a 59 cb 6f bf a5 27 57 a6 53 7c 99 bf
       -0.0038811440615762103 -0.024888331439605022
000180 92 1d c4 c1 d3 8f 97 bf da b4 f3 9a c7 92 99 bf
       -0.023009594632666337 -0.024973982651251038
000190 82 91 fa 61 2f 91 6d 3f f0 f3 06 fa 56 37 8e bf
       0.0036092687076509375 -0.014753989701484088
0001a0 16 35 96 33 9e 00 ae bf 3d 56 dc 30 2c 96 82 bf
       -0.05859846477242507 -0.009075494042501403
0001b0 b1 c0 a8 dc 77 83 c3 3f f8 91 f2 c3 ba 07 64 3f
       0.15244959139227413 0.002445091987811173
0001c0 af bc 61 e5 59 44 90 bf 1d 50 c3 3e a0 8a 41 3f
       -0.015885738969185933 0.000535324330054102
0001d0 f1 3f 9f b0 5d 60 80 bf 9d d7 f1 da 8c 20 7b 3f
       -0.007996303513124277 0.006622839179831444
0001e0 28 47 2a fa 67 a9 8c bf 03 18 45 f6 49 d9 a2 bf
       -0.013994991609510857 -0.03681403285240494
0001f0 b7 5c 68 50 a2 99 80 3f ea 85 a6 a8 39 f3 bc 3f
       0.008105533675048055 0.11308632247393971
000200 54 12 ce ec d5 b5 81 3f a6 dc e2 d6 49 13 72 3f
       0.008647605218137823 0.004412926135208972
000210 75 86 01 4c 85 30 7e bf 8a 4d d0 39 c6 92 87 bf
       -0.007370491686829452 -0.011510418547948448
000220 b2 93 fe f7 db 53 87 bf d8 22 9c 95 d4 80 9d bf
       -0.011390417581262333 -0.028811761504615813
000230 e4 d4 66 e9 d6 14 9f bf cc 7d 4b 18 9b 3b 86 3f
       -0.030352933879574176 0.01085587661640277
000240 42 4f e9 a9 e1 6c b8 3f 40 71 6b 30 08 3f 83 bf
       0.09541139982439709 -0.00939756772771061
000250 93 f7 9e 84 41 5a 84 3f 0d 24 fe 2d 30 89 80 3f
       0.00993777452447001 0.008074165729128802
000260 6e 9f b4 5b d4 da 65 bf a3 ed 57 b5 0a a7 8b bf
       -0.002667822611005669 -0.013502200755275256
000270 20 c8 43 2e 36 c8 8e 3f 10 6c 1f 32 da 60 45 bf
       0.015030310904396826 -0.0006524148377552458
000280 ed 45 35 ca f2 bf 91 bf 87 dd c3 f6 7e 44 b1 3f
       -0.017333787528803702 0.06745141529596853
000290 59 64 fd 63 0e 0a 5b 3f 34 99 ca fa 02 b0 96 3f
       0.0016503468068178788 0.02215580611905317
0002a0 bb 11 6b ad db cc 9e 3f fb 74 31 0f 49 92 aa bf
       0.030078346690759022 -0.05189731893981705
0002b0 f0 f4 6a ab 7c 0a a7 3f 6e 10 7a f0 7b 73 c8 3f
       0.04500188438894692 0.19102429620773215
0002c0 0a f7 89 23 7e 99 d5 bf 9e 0a 60 92 81 da b5 3f
       -0.33749345274542064 0.08536538909542421
0002d0 f2 c6 e4 cb 22 66 ea 3f 7e 11 48 a2 5b c0 99 3f
       0.8249677641199169 0.02514784982669615
0002e0 e3 ea 60 ba 72 c5 6b 3f aa ac e6 23 69 97 ad bf
       0.003390049055295706 -0.057795796997504326
0002f0 f5 aa 36 f0 93 f0 80 bf 1d 17 ef ab ea 17 a3 bf
       -0.008271365898357067 -0.03729184483340318
000300 65 7a e4 44 f6 52 aa 3f ea e8 86 7b 16 02 6c 3f
       0.05141419974301157 0.0034189643012868436
000310 11 81 51 50 5b bf 9f bf d4 61 cc 41 74 b0 b6 bf
       -0.03100340535854779 -0.08862997633367026
000320 68 d4 f6 ed d8 18 76 3f ca e1 b5 2d 28 f3 70 3f
       0.005394790059132772 0.0041381425356736366
000330 01 69 66 6b 06 ac 73 bf 88 e0 e9 d5 0f 6b 85 bf
       -0.0048027277720399395 -0.010458110538124524
000340 f2 4c 4b b2 fb f1 84 bf df d5 54 12 70 c0 6f bf
       -0.010227171305280145 -0.003875941171510119
000350 39 a8 40 ac 05 20 83 bf 74 f2 e9 3e 09 2f 6e 3f
       -0.009338421172362487 0.003684537943000438
000360 39 ec fd 9c 6a 8d 83 3f 5f cc 85 f9 f3 fa b3 bf
       0.009547074237835062 -0.07804798929082456
000370 83 16 b5 81 5c e7 b5 3f fe 92 b4 8a 9a 05 8d bf
       0.08556154410060839 -0.0141708444194335
000380 ad c4 c1 c7 32 49 a2 bf 64 a9 7e 68 b2 ac 3e bf
       -0.03571470917166528 -0.00046805720966837925
000390 79 d4 d0 35 30 e1 92 3f f8 89 51 5d 89 a9 aa bf
       0.018437150272991396 -0.05207471145765291
0003a0 01 69 14 f7 a4 fa b0 3f 9c 9b 8a f1 e9 0c cc 3f
       0.06632452995510009 0.21914409917846178
0003b0 cd d4 db c4 80 e8 95 3f 9f 08 e3 7e 93 e7 91 3f
       0.02139474107294319 0.017484955424841627
0003c0 24 8f 19 46 b2 18 93 3f 5d ed 9b 83 9c 23 92 3f
       0.018648896721415245 0.017713971646100436
0003d0 b7 d4 c1 f3 07 e6 a4 3f 4e 15 45 17 14 76 a5 3f
       0.040817497735511514 0.04191649231010307
0003e0 86 d3 fc 1d dc 04 a1 3f ed 26 8f 0f 98 d6 a6 3f
       0.0332402025800667 0.044605972194018274
0003f0 bb 24 a6 4d 27 bc b5 3f 2d fd 37 3b 3b 28 42 bf
       0.08490224500396241 -0.0005541123595661828
000400 2c 41 24 24 da 78 68 3f 8c 18 50 d5 14 af 4e bf
       0.0029873142785917985 -0.0009363986706609913
000410 a5 6f 0b 18 17 d5 62 3f 70 29 63 ed 32 c0 38 3f
       0.0022988749554837145 0.00037766688673159573
000420 85 8d 98 f4 4b 2b 5c 3f d6 9a ad b7 62 99 64 bf
       0.001719307112929198 -0.002514546210864092
000430 2b 2c 69 98 7c 0a 52 3f 51 8c b1 81 3f 79 41 3f
       0.0011011330367576382 0.0005332527247329332
000440 48 66 c5 31 44 cb 5c bf 69 44 fb 7d bb a9 45 bf
       -0.0017574468575588687 -0.000661102818378845
000450 50 70 d8 3d a1 8b 45 3f 24 04 1b 71 e2 bf 64 bf
       0.0006575143158360584 -0.0025329039279715793
000460 75 96 4f fb 65 f4 4f 3f dd bd 1c 20 7d 1c 34 3f
       0.0009751794774472538 0.000306873844340109
000470 90 ac 03 95 df 0f 40 bf 85 6b 8f 34 6b 7d 67 bf
       -0.0004901735028658583 -0.002867421517732396
000480 68 8a 1d d5 5d 5e 40 3f 98 a1 c1 85 b4 52 9d bf
       0.000499530617372135 -0.028635807670441688
000490 66 4f 2c 40 92 19 6a bf b0 a6 e9 61 31 3b 92 3f
       -0.0031860214670675234 0.017803927994839597
0004a0 a0 8a 23 31 03 d1 71 bf 7b f2 7c 71 bc 83 65 bf
       -0.004349720448063948 -0.002626293233247088
0004b0 77 71 2a fd 95 ef 8a bf 34 a4 7b e0 29 6e a8 bf
       -0.01315228632784547 -0.04771548142691309
0004c0 fe e8 e2 2c af ff aa bf da ac 8c 17 29 79 9f bf
       -0.052731966237347536 -0.03073562818751161
0004d0 5b 42 c1 0f 7a 1b a4 bf f9 a5 5c 21 b6 1d 58 3f
       -0.039272131369788986 0.001471927510872438
0004e0 c1 4f c1 b3 60 6f a6 bf 84 bf 57 1c 54 84 a2 bf
       -0.043818494742168486 -0.0361658367727378
0004f0 1e 0c 62 87 42 c3 7b 3f 0e 4a b3 ed c9 63 ac 3f
       0.006778011205940819 0.05544882799735627
000500 93 20 d2 e2 4e 58 a1 bf aa 21 ec 05 d4 e1 af bf
       -0.03387686270531378 -0.062269807551334225
000510 45 61 ac c8 93 e4 72 bf
       -0.004612519531996211
